frozen_lake_dql.pt (torch, 3472 bytes, 4 tensors)

fc1.weight f4 [16, 16]
0	0xbc98f493	-0.01867131
1	0x3ee0e4e5	0.43924633
2	0xbe7dbd55	-0.24779256
3	0x3e950485	0.2910501
4	0x3e5444ee	0.2072942
5	0x3e4bfb0a	0.19919983
6	0x3e4f46f8	0.20241916
7	0x3e3cf956	0.18454489
8	0x3e0d2c7a	0.13786498
9	0xbe7b2ad3	-0.24528055
10	0x3ddc11b5	0.10745565
11	0x3e5eab58	0.2174505
12	0xbd1ac770	-0.037787855
13	0xbe7a1e8d	-0.24425717
14	0xbe687703	-0.2270165
15	0x3e367730	0.17818904
16	0x3ddfa132	0.109194174
17	0x3ecbda74	0.39815104
18	0x3e1a5f70	0.15075469
19	0x3e9768a2	0.29572016
20	0x3e497429	0.19673218
21	0x3db3d584	0.08780959
22	0xbe2d3524	-0.16914803
23	0xbdbdbb3c	-0.09264228
24	0x3dc30ffd	0.09524534
25	0xbdcfff31	-0.10156096
26	0x3e93a35c	0.2883557
27	0xbd436cc0	-0.047711134
28	0xbe6fb6e8	-0.23409617
29	0xbdcb2b9a	-0.09920426
30	0x3dc3e0e8	0.09564382
31	0x3d86d408	0.065834105
32	0x3e308b2b	0.17240588
33	0x3cffb420	0.03121382
34	0xbd99a450	-0.07502043
35	0xbddedfe8	-0.108825505
36	0xbe17080c	-0.14749163
37	0xbe438c8a	-0.1909658
38	0x3e8c754e	0.27433246
39	0x3dbc7f7c	0.09204003
40	0xbdf521d8	-0.11969346
41	0xbe1bb640	-0.15206242
42	0x3eb656a2	0.3561297
43	0x3de29ecc	0.11065444
44	0xbd1657c0	-0.03670478
45	0xbe27017a	-0.16309157
46	0xbe6373b6	-0.22212109
47	0xbd2f8b48	-0.04285744
48	0xbd82c3f0	-0.06385028
49	0xbe55dec2	-0.20885757
50	0xbe486818	-0.19570959
51	0x3eb787d1	0.35845807
52	0xbe2dfe7a	-0.16991606
53	0x3e67e400	0.22645569
54	0xbb85955b	-0.0040766424
55	0xbde2509c	-0.11050531
56	0xbd2bbad8	-0.041926235
57	0xbe268250	-0.16260648
58	0xbe5e9148	-0.21735108
59	0xbe18fd2e	-0.1494033
60	0xbd928f5c	-0.0715625
61	0xbe66126c	-0.22467965
62	0xbce26640	-0.027636647
63	0xbe0b2a90	-0.13590455
64	0x3ea78dfe	0.3272552
65	0x3dead753	0.11466851
66	0x3e98cd38	0.2984407
67	0x3d910705	0.07081417
68	0xbe0863f4	-0.13319379
69	0x3c210ce0	0.00982973
70	0xbe70f7ca	-0.23532024
71	0x3d81ea1c	0.06343481
72	0xbe6c53a6	-0.23078784
73	0xbe3c37e1	-0.18380691
74	0xbd5670eb	-0.05235378
75	0x3dc2c800	0.09510803
76	0x3dd1b818	0.10240191
77	0xbde4be6c	-0.111691326
78	0x3f026cca	0.5094725
79	0x3d95e8c4	0.07319787
80	0xbdab9bb0	-0.083793044
81	0x3ddc4aa6	0.107564256
82	0xbd94ca2c	-0.07265124
83	0x3ea55447	0.3229086
84	0x3d086a44	0.033304468
85	0xbe6f9e06	-0.23400125
86	0xbe7e207c	-0.2481708
87	0xbe44862e	-0.1919181
88	0xbdec37e0	-0.11534095
89	0x3ed72c72	0.42026097
90	0xbd5f0690	-0.054449618
91	0xbe5abea4	-0.21361786
92	0xbb5b2000	-0.0033435822
93	0xbcd61a26	-0.026135515
94	0xbe0ff13c	-0.14056867
95	0x3e1038cc	0.14084166
96	0x3e303ff4	0.17211896
97	0x3e2ef7c8	0.17086709
98	0x3c7334e0	0.014844149
99	0xbcbcf840	-0.023067594
100	0x3e257548	0.1615802
101	0x3e61a63e	0.22036073
102	0x3e1e2f6e	0.1544778
103	0x3cd28e80	0.025702715
104	0xbe4a27b6	-0.19741711
105	0xbe3a6112	-0.18201092
106	0x3d0315b0	0.032003105
107	0x3e448c2c	0.19194096
108	0xbe673ffa	-0.22582999
109	0xbe625b46	-0.2210513
110	0x3e43ce9f	0.19121788
111	0x3e3aa1dc	0.18225807
112	0x3eb1d3e8	0.34731984
113	0xbdc3add6	-0.09554641
114	0x3eb4899f	0.35261247
115	0xbe574f81	-0.21026422
116	0x3e832243	0.25612077
117	0xbcf17930	-0.029476732
118	0xbce41066	-0.02783985
119	0x3ddfff78	0.10937399
120	0xbe423c66	-0.18968353
121	0x3e4a8567	0.19777451
122	0x3ee2b7ea	0.4428094
123	0xbd986254	-0.074406296
124	0xbca88680	-0.020571947
125	0x3d328340	0.0435822
126	0x3eb7ded8	0.35912204
127	0xbe1e0b94	-0.15434104
128	0xbe357b5e	-0.17722842
129	0xbe62f452	-0.22163513
130	0xbd1fe9f0	-0.03904146
131	0xbb8ca800	-0.004292488
132	0x3d7bedc8	0.061506063
133	0xbe73c086	-0.2380391
134	0x3d1e4168	0.038636595
135	0x3e2308be	0.15921304
136	0xbd9bb6c8	-0.07603222
137	0xbe24f6c6	-0.16109762
138	0xbda06848	-0.0783239
139	0x3dd6f1a0	0.10495305
140	0x3ada2f00	0.0016646087
141	0xbe5950fe	-0.21222302
142	0x3da6aee0	0.081388235
143	0x3db4e754	0.08833185
144	0x3d746af7	0.059672322
145	0xbe91ca17	-0.28474495
146	0x3e2383a2	0.15968183
147	0xbcfb9a14	-0.030713119
148	0x3ba36528	0.004986424
149	0xbe096994	-0.13419181
150	0x3ef929ad	0.4866461
151	0x3db1da28	0.08684188
152	0xbd719937	-0.058984008
153	0xbce66f74	-0.028129317
154	0x3ebd3d87	0.36961004
155	0x3e2de9e6	0.16983756
156	0xbd56c308	-0.05243209
157	0x3eab7d89	0.33494213
158	0x3cebf2f3	0.02880237
159	0x3e1a09e0	0.1504283
160	0xbe9f449b	-0.3110703
161	0xbe881ba0	-0.26583576
162	0x3e09d8ff	0.13461684
163	0x3e03c938	0.12869728
164	0x3e9291d4	0.28626883
165	0x3dbc8ff0	0.092071414
166	0x3e728f4d	0.23687477
167	0xbe6a7b36	-0.22898564
168	0x3d185fac	0.037200615
169	0xbde7f41a	-0.113258556
170	0x3f287457	0.6580252
171	0x3d866934	0.06563035
172	0xbe361e34	-0.17784959
173	0xbe211ea0	-0.15734339
174	0x3d87f371	0.0663823
175	0xbe457b4a	-0.19285312
176	0x3ddb6fb2	0.107146636
177	0x3dbf572f	0.09342801
178	0x3d1e4a92	0.038645335
179	0x3e5c9a5f	0.21543263
180	0xbe713907	-0.2355691
181	0x3d6ea6e8	0.058264643
182	0xbe7b710e	-0.24554846
183	0x3e14dcec	0.145374
184	0x3eb4f000	0.35339355
185	0x3eb7a632	0.35868984
186	0x3dc09587	0.0940352
187	0x3b394d00	0.0028274655
188	0xbdbf4540	-0.0933938
189	0x3e82a076	0.25513047
190	0x3ed2979b	0.4113129
191	0xbe12193e	-0.14267442
192	0xbe529a1a	-0.20566598
193	0x3e011025	0.12603815
194	0x3ba18a9a	0.0049298527
195	0xbe9d0a9e	-0.30672163
196	0x3d898415	0.06714646
197	0x3ceb58a0	0.028728783
198	0x3e76f755	0.24117787
199	0xbe54ff72	-0.2080057
200	0xbe4bbf63	-0.19897227
201	0x3e44a549	0.19203676
202	0xba02bb38	-0.0004987004
203	0xbdd12404	-0.102119476
204	0xbe0bc624	-0.13649803
205	0x3e01bf2e	0.12670586
206	0x3ee1a37c	0.4407004
207	0x3cb57d00	0.022154331
208	0x3dcdd794	0.10050884
209	0xbdb7aa18	-0.0896799
210	0x3e20bd74	0.1569727
211	0xbd1b6140	-0.03793454
212	0x3b728580	0.0037005842
213	0xbe2bc1fa	-0.16773215
214	0xbd2c3b88	-0.04204896
215	0xbe2ef52c	-0.17085713
216	0x3df59178	0.119906366
217	0xbd731ec0	-0.059355497
218	0xbe0c033e	-0.13673112
219	0x3e4707f2	0.19436625
220	0xbe43aaf4	-0.19108182
221	0x3d7096c0	0.058737516
222	0xbe5c623e	-0.21521851
223	0x3c851650	0.016245991
224	0xbc839160	-0.016060531
225	0xbe128046	-0.14306745
226	0x3dc04884	0.09388831
227	0xbdff5e10	-0.12469113
228	0xbda27760	-0.07932925
229	0x3e574fbe	0.21026513
230	0xbc303a20	-0.010756046
231	0x3d84beb4	0.06481686
232	0xbdb43500	-0.087991714
233	0xbe0b9a60	-0.13633108
234	0x3dde4bac	0.10854277
235	0x3d27bf58	0.040953964
236	0xbc249840	-0.010046065
237	0x3d703908	0.05864814
238	0xbdfcc528	-0.12342292
239	0x3cc82100	0.024429798
240	0x3c741986	0.014898663
241	0x3e95e68f	0.29277465
242	0x3d848c6b	0.06472095
243	0xbd539a3a	-0.051660754
244	0xbea6631d	-0.32497492
245	0x3e7a73aa	0.24458185
246	0xbeb32a50	-0.3499322
247	0x3d0f86b0	0.035040557
248	0x3ea66bb9	0.3250406
249	0x3db409eb	0.08790954
250	0xbeb313c2	-0.34976012
251	0xbe1aee66	-0.15130004
252	0x3e6b8358	0.22999322
253	0x3ede92b3	0.43471298
254	0x3ea8505a	0.32873803
255	0x3c24a080	0.010048032

fc1.bias f4 [16]
0	0x3e79ef09	0.24407591
1	0x3dc93336	0.09824221
2	0xbda017ab	-0.07817014
3	0xbc72284a	-0.0147801135
4	0x3e457cdf	0.19285916
5	0x3cfcb8d2	0.030849848
6	0xbe4b9d4c	-0.19884223
7	0x3ebeb7f7	0.3724973
8	0xbe479560	-0.19490576
9	0x3e8f1064	0.27942193
10	0x3e85d76b	0.26140913
11	0x3e799d3b	0.24376385
12	0x3ed78c34	0.42099154
13	0xbe6d8510	-0.2319529
14	0xbe08bb4e	-0.13352701
15	0x3eb2e03d	0.34936705

out.weight f4 [4, 16]
0	0x3d78f09a	0.06077633
1	0x3ef04fff	0.46936032
2	0xbce1c346	-0.027558934
3	0x3e348004	0.17626959
4	0x3e92abe0	0.28646755
5	0x3e303082	0.17206004
6	0x3dc41acc	0.095754236
7	0x3eb1220c	0.34596288
8	0x3ca3b0f0	0.019981831
9	0xbdccae58	-0.09994191
10	0x3e97f333	0.29677734
11	0x3ea816d6	0.32829922
12	0xbe019616	-0.1265491
13	0x3cf1b7a0	0.029506505
14	0x3e718ee2	0.23589662
15	0x3e1c6340	0.15272236
16	0xbe8e1b3b	-0.2775515
17	0xbe90ee90	-0.2830701
18	0x3e65f533	0.22456817
19	0xbe2534e6	-0.1613346
20	0x3e4b9d07	0.1988412
21	0xbe4ec157	-0.20190941
22	0xbc967978	-0.018368468
23	0x3e97bfb0	0.29638433
24	0x3df989a0	0.12184453
25	0x3ed8d46c	0.42349565
26	0x3e818fc4	0.25304997
27	0x3db5e045	0.08880667
28	0x3ed692e4	0.41908944
29	0xbd732348	-0.05935982
30	0xbdc25b0c	-0.09490022
31	0xbe1a8b13	-0.15092115
32	0xbe7df074	-0.24798757
33	0xbdba6d93	-0.09102931
34	0xbe0ec634	-0.13942796
35	0x3edb8314	0.42873442
36	0x3e34ef27	0.17669354
37	0x3e3450eb	0.17608993
38	0xbe1f4a65	-0.15555723
39	0x3d8e3400	0.06943512
40	0xbe353db4	-0.17699319
41	0xbdee9912	-0.116502896
42	0xbe60e19f	-0.21961068
43	0x3ebaad74	0.3646046
44	0x3e155319	0.1458248
45	0x3e61dd24	0.22057015
46	0x3d460110	0.048340857
47	0x3f0dcbfb	0.55389374
48	0x3e9b40ee	0.30322975
49	0x3eb1369a	0.3461197
50	0xbd2cdda3	-0.042203557
51	0x3d07e044	0.03317286
52	0x3ed11be2	0.40841585
53	0xbebedd22	-0.37278086
54	0xbe2c1310	-0.16804147
55	0x3dcc096d	0.09962735
56	0x3c0c08a0	0.008546978
57	0x3ec8e5b4	0.3923775
58	0x3e17bca2	0.14818051
59	0x3cd13e2d	0.025542343
60	0x3ea9907b	0.33118042
61	0x3e3fa81a	0.1871647
62	0x3b9fe380	0.004879415
63	0x3d5ed916	0.054406248

out.bias f4 [4]
0	0xbd9ed9b0	-0.07756364
1	0x3d7b3034	0.061325267
2	0x3e5d4b4f	0.21610759
3	0xbdf21b13	-0.1182157
