frozen_lake_dql.pt (torch, 3472 bytes, 4 tensors)

fc1.weight f4 [16, 16]
000000 05 51 5c 3e eb 93 61 3e fe 73 48 be e2 84 06 3e
       0.21515281 0.22029082 -0.19575498 0.13136628
000010 1c a3 0b 3e 0e bc 5d 3e a3 a3 1d 3d c0 fe 65 3c
       0.1363644 0.21653768 0.038486134 0.014037788
000020 9d 43 6b 3e f6 03 dc bd 12 b1 99 3e ba 1a 25 3e
       0.22975011 -0.10742943 0.30017906 0.16123477
000030 90 f3 2e be b1 79 c9 bd f6 61 0d 3c 36 29 7b be
       -0.17085099 -0.09837664 0.008629313 -0.2452744
000040 e5 78 5a 3e aa 5b 90 be 39 ac a5 3d c0 b3 39 be
       0.2133518 -0.28194934 0.080894895 -0.18134975
000050 9d 52 29 be 50 73 ca 3c c8 14 94 be 50 2d 5d 3d
       -0.1653542 0.024713188 -0.28922105 0.05399829
000060 58 9c 1d 3d 66 14 1c 3f 8f 97 5a be 34 07 8b bd
       0.03847918 0.60968626 -0.21346878 -0.06788483
000070 04 14 5f be f6 fd 9a 3e a0 63 0b 3f 1e d4 2a be
       -0.21784979 0.30271882 0.5444889 -0.16682479
000080 22 85 b5 bd f7 6e 4b 3c de cd 83 3d be a8 44 be
       -0.08863284 0.012416593 0.064357504 -0.19204995
000090 5e 44 ac 3e 30 87 b5 bc d2 de 1b 3f 3c e3 cb bd
       0.3364591 -0.022159189 0.6088687 -0.09955451
0000a0 6a 4b 09 be 1d 09 f7 bd 5a fa 90 3e da cc 71 be
       -0.13407674 -0.12062285 0.28316003 -0.23613301
0000b0 8c d5 7c be d8 a1 13 be af 24 0c be 00 9c 8a 3c
       -0.24690837 -0.14417207 -0.13685869 0.01692009
0000c0 95 0c 62 bc f2 e2 28 be 25 34 79 3e 37 14 91 3e
       -0.013796945 -0.16492823 0.24336298 0.28335735
0000d0 78 f3 31 3f 34 14 fe bd f4 63 f9 bd c8 44 60 bd
       0.6951213 -0.12406197 -0.12177268 -0.054753095
0000e0 3a 60 19 be 28 97 43 be 0c f6 ca 3e c0 23 ed bb
       -0.14978114 -0.1910063 0.39640844 -0.0072369277
0000f0 da 81 6c 3e 7f 7c e7 bd 91 cf 53 3d 04 e3 91 3d
       0.2309641 -0.113030426 0.051711623 0.07123378
000100 e2 95 66 be 7e c4 24 be e0 45 b1 bc 7e 6f 20 3e
       -0.22518113 -0.16090581 -0.021639764 0.15667531
000110 30 01 6b 3e f4 9f 30 be a4 03 f5 bd 70 5a 70 bd
       0.22949672 -0.17248517 -0.11963585 -0.058679998
000120 f6 02 0f 3e 09 7f 79 3e 90 0d af 3c dc 2e e3 bd
       0.13965973 0.24364866 0.021368772 -0.11092922
000130 e0 89 03 3e 54 34 57 3e 38 d4 b5 3d 4a e2 18 be
       0.12845564 0.21016055 0.08878368 -0.14930072
000140 ce 12 94 bb dc 4a 67 be d9 04 62 3e 5e ff 6d be
       -0.0045188433 -0.2258715 0.22072162 -0.23241946
000150 a5 1e 47 be 8c 7b 86 bd 54 ba 91 3d 6a c2 23 be
       -0.19445284 -0.065665334 0.071156174 -0.15992132
000160 33 78 3c be 26 b2 68 be 30 1d c9 3e e6 c4 1a 3e
       -0.18405227 -0.22724208 0.3928008 0.15114173
000170 00 85 e9 3d 61 4c 47 bd 8c e0 52 3e 5e df 2a 3e
       0.11402321 -0.048656825 0.2059347 0.1668677
000180 0d 1b 0b be 19 88 ea 3d 9a 21 df 3d 42 1b c1 3e
       -0.13584538 0.1145174 0.10895081 0.3771611
000190 f8 42 de be 0c ba cf 3d 41 3b de be 58 36 82 3d
       -0.43410468 0.101429075 -0.43404582 0.063580215
0001a0 54 07 d8 3e fa 5b 85 be e2 d4 4b be e6 20 7a be
       0.4219309 -0.26046735 -0.19905427 -0.24426612
0001b0 f4 de 35 be 04 46 d3 bd 8a 89 63 3e 92 73 6a 3e
       -0.17760831 -0.10316089 0.22220436 0.22895649
0001c0 ea c5 5c be 8c e6 07 be 70 c8 e2 3c 6c 63 bd 3d
       -0.21559873 -0.1327154 0.027683467 0.09247479
0001d0 00 0f 2f 3c 10 9f 2d 3e 15 dc 9a 3d 06 3f 7a 3e
       0.010684729 0.16955209 0.075615086 0.24438104
0001e0 50 d0 c6 bd 7c 80 28 be 8f 04 18 3f 70 37 f1 3d
       -0.09707701 -0.16455263 0.59381956 0.11778152
0001f0 72 71 37 3e 3a a6 c2 3d d0 38 7b bd 1c e6 71 be
       0.1791437 0.095043615 -0.061333477 -0.23622936
000200 01 f8 09 3d 6b d9 5b 3d 89 70 e1 3c 94 80 e5 bd
       0.03368378 0.053674143 0.027519481 -0.11206165
000210 d2 d5 ae 3e 1c da 7e be 6d 1b ce 3d 96 b1 65 be
       0.34147507 -0.2488789 0.10063825 -0.22431025
000220 73 f4 d4 3d 40 9e 0b be 88 b8 78 bd 0c 10 89 3d
       0.103981875 -0.13634586 -0.060722858 0.06692514
000230 f0 0b 58 bd 69 85 0b 3d d2 1e 9c 3e d8 2d 80 bd
       -0.05274576 0.034062777 0.30492264 -0.06258744
000240 64 ef b8 3d ac 61 d8 3e ba 22 42 3e 84 ac a4 3e
       0.09030035 0.42262018 0.1895856 0.3216287
000250 39 a8 fe bd 80 c1 21 be a3 ba de bc 5e b3 21 3e
       -0.1243443 -0.1579647 -0.027188605 0.1579108
000260 43 3f cf 3e ce 35 dc bd c4 41 1c be 70 b5 fe 3c
       0.40477952 -0.1075245 -0.15259463 0.031092376
000270 70 d5 5e 3e a3 b2 17 bb 2c f1 3f 3b 40 d2 04 3c
       0.21761107 -0.0023147247 0.0029288037 0.008106768
000280 87 73 d3 bc c1 3a 92 3e f8 71 83 bc 39 4b ab 3c
       -0.025811924 0.2856045 -0.016045555 0.020909892
000290 ae a5 ee 3c 7a db 02 3e 0e 94 87 be 12 9e 22 be
       0.029131737 0.12779036 -0.26480144 -0.15880612
0002a0 e7 43 29 be 50 6b 79 3c ae 1d 67 be c8 e5 03 bd
       -0.16529809 0.015223339 -0.22569916 -0.03220156
0002b0 5a c7 57 3e 4d fd f0 3d 38 09 f0 3e d8 ea 35 3e
       0.2107214 0.11767063 0.46882033 0.17765367
0002c0 8b e7 bf 3d 40 68 60 3e 9c 51 72 be c4 31 1f be
       0.09370335 0.21914768 -0.23663944 -0.15546328
0002d0 18 03 41 be 70 b2 21 3d 40 3b 7a bc d6 b8 0e be
       -0.18848836 0.039476812 -0.015272915 -0.13937697
0002e0 92 1f ab 3e 60 e8 2b 3d 38 ac b5 3d 90 72 f1 bc
       0.33422524 0.041969657 0.08870739 -0.029473573
0002f0 a0 19 8d bd d8 86 1f 3d 30 24 7a be bc 02 6f 3e
       -0.06889653 0.038946956 -0.24427867 0.23340887
000300 00 b1 08 3d ee ee 2e 3e 08 ce d7 bd 1c 6f 4c be
       0.033371925 0.17083332 -0.10537344 -0.1996426
000310 d2 46 00 be f6 72 1f be 70 f8 8e 3c 60 15 f7 bc
       -0.12527016 -0.15571198 0.017452449 -0.03016156
000320 f0 f4 f4 3c 58 e1 9d bd 60 66 33 3c 30 70 b8 bc
       0.029901952 -0.077089965 0.010949701 -0.022514433
000330 c0 e7 94 bd ce 2d 23 3e ac ce f4 bd 6a 00 1b 3e
       -0.07270765 0.15935442 -0.11953482 0.15136877
000340 23 87 19 3e 47 75 32 bd ff 7d 38 3e 53 de 13 bd
       0.14992957 -0.043568876 0.18016814 -0.036100697
000350 45 d0 b0 3d 98 18 c0 3d f7 4b c6 bd fc ef ba 3d
       0.08633474 0.09379691 -0.09682458 0.09127805
000360 f6 6f cd bc a7 6f f2 3e 8b ab 82 3e a0 4f 6e 3c
       -0.025077801 0.4735081 0.25521502 0.014545351
000370 60 d5 be 3c 4c 08 24 be 12 fd 92 3c 2a 0d 32 3e
       0.023295105 -0.1601879 0.017942939 0.17387834
000380 92 fd af bb 6d 03 e2 3d 9d e8 09 3e 20 d4 76 be
       -0.005370804 0.1103581 0.13467641 -0.24104357
000390 7a 14 48 be c0 ae ff 3c d1 41 ce bb 4a d8 68 be
       -0.19539061 0.031211257 -0.006294467 -0.22738758
0003a0 16 f0 51 bc 65 01 89 3e 98 8f 6a 3d c4 05 40 3e
       -0.012813589 0.26758876 0.057265848 0.187522
0003b0 f8 c2 19 bd 58 80 a4 3e 9f a7 15 3d 14 8b 73 3e
       -0.037539452 0.3212917 0.03653681 0.23783523
0003c0 64 9c 8a 3d 3b 25 58 be 20 18 14 3e c8 97 26 be
       0.067681104 -0.21107952 0.14462328 -0.16268837
0003d0 41 84 5f 3e f0 71 25 bd 23 8e 2f 3f 30 8d be bc
       0.21827795 -0.040391862 0.6857626 -0.023260683
0003e0 52 5d 8e be 70 52 8d be 3d 82 ff bc 40 26 5b bd
       -0.27805573 -0.27601957 -0.031190032 -0.053503275
0003f0 6c e5 66 be e7 a9 f1 3e eb ad d5 3d 98 2d e6 bd
       -0.22548455 0.47199938 0.10433563 -0.11239165

fc1.bias f4 [16]
000000 25 55 c4 3d 37 66 a2 3e ce c3 e5 3d d3 53 dd 3d
       0.095865525 0.3171861 0.112189874 0.10807004
000010 e9 32 82 be e5 e1 41 3e 80 cb d6 3e d3 8d d4 bd
       -0.25429466 0.18933828 0.41952133 -0.10378613
000020 9f d5 20 bd 27 72 e6 3d d0 bc 86 3e 80 4d eb bd
       -0.039266225 0.112522416 0.26315928 -0.11489391
000030 3a de 30 be a8 66 19 3e 3b b2 44 3e 9c 50 8e 3e
       -0.17272273 0.14980567 0.19208615 0.27795875

out.weight f4 [4, 16]
000000 a2 ab f5 3d c7 49 4d 3e dc f7 33 be 4c 45 ac 3e
       0.11995627 0.20047675 -0.1757502 0.3364662
000010 d8 44 5c be 77 20 f5 3d f6 31 23 3e 46 ed ac 3e
       -0.21510637 0.11969083 0.15937027 0.33774775
000020 ab 6d a6 3e cd 92 a7 3d d2 9b 22 3e 9d 93 7b 3e
       0.32505545 0.08182297 0.15879753 0.24568029
000030 c8 db 32 3e 05 2e 73 3e 2b 22 2b bd ef 49 6c be
       0.17466652 0.23748024 -0.041780632 -0.23075078
000040 e4 b3 56 be 7f 44 b2 3e a4 ec b9 3d 1f 12 89 3d
       -0.2096706 0.34817883 0.09078339 0.066929094
000050 80 14 e5 bb 07 2b f5 3e 2c e1 e6 bd 25 dd 88 3e
       -0.006990969 0.4788439 -0.11273417 0.2673122
000060 e4 e2 05 3e 1e 22 fc be a9 5c 86 3d c9 71 fa bd
       0.13074833 -0.4924478 0.06560642 -0.12228734
000070 e2 05 33 3e e9 3d 8f 3e cb 36 26 3e d6 6e cd 3e
       0.17482713 0.2797692 0.1623184 0.40123624
000080 6f fc 1b be a7 5f a2 3e 29 e0 f6 be 64 85 3c be
       -0.15233015 0.31713602 -0.48217896 -0.1841026
000090 5e d7 eb bd 7b 88 36 bb d1 f0 94 3e fe 87 60 be
       -0.115156874 -0.0027852345 0.29089978 -0.21926877
0000a0 51 c3 12 be 19 67 a7 bb 12 a5 b0 3e 07 f4 41 3e
       -0.1433232 -0.0051087257 0.3450094 0.18940745
0000b0 20 1c 76 bd d7 ee 0f be 38 c6 97 3e f5 dc 56 ba
       -0.060085416 -0.14055954 0.29643416 -0.00081963773
0000c0 0b 84 86 3e d7 d3 ef 3b ae bd 5d bd 7d 82 b2 3d
       0.26272616 0.0073189544 -0.05413597 0.08716295
0000d0 48 0d bf 3d 35 63 e7 3e 77 98 3e 3e b3 4e b9 3e
       0.09328705 0.45192876 0.18612848 0.36192855
0000e0 81 75 9e 3e ae 45 d1 3e 25 fd 1c 3e 3e fb 3b 3d
       0.30949023 0.40873474 0.15330942 0.0458939
0000f0 68 26 1b be c4 d9 6b be 6a 16 f9 bd 82 88 d0 3e
       -0.1515137 -0.2303229 -0.12162478 0.40729147

out.bias f4 [4]
000000 39 77 81 3e 69 ea 71 3e 48 97 a7 3e 7e 0c 0f 3e
       0.25286272 0.23624577 0.32732606 0.13969609
