frozen_lake_dql_cnn.pt (torch, 16224 bytes, 10 tensors)

conv_block1.0.weight f4 [10, 3, 3, 3]
00000000: 6157 203e cdfb 3ebe 6814 d43d 3c7c 0dbe
00000010: f32a 19bc b203 743e a056 0c3c 93da 44bd
00000020: f6e7 48be 48b1 c03a 25ae 183e a0fc 4cbd
00000030: 2d3d f6bd 7f91 9bbd c88a b33d a3e8 1a3e
00000040: 52d8 593e 67bc 283d 5cfe 273e 2774 d4bd
00000050: 7e49 803e 5a1b 083e 3ae8 cebd caa4 4a3e
00000060: 11b4 e2bb 409f 243e 70c7 85be 4e76 0c3d
00000070: 604e c33e 15b5 e43d 5043 7cbc c1a5 07be
00000080: d837 a73e 0d3d 133e 5c40 90bd ba91 803e
00000090: 63cb 01be 7e33 a83e 8b61 af3b f68d 93bd
000000a0: ec6a 073d acaa b93d 3b38 1fbe 2fce cbbd
000000b0: 7475 123d d618 bc3d 3c88 c13e 5fe7 36be
000000c0: 525a 23be 49d5 0c3e 4251 863e 46dc 3abc
000000d0: 3060 3fbc 5e35 a23e d0cc 01be daae 603b
000000e0: 8d08 abbd 5bcd a23d 8c3c f0bd 1092 40be
000000f0: d854 dbbb ef50 33bd c349 073e d228 28be
00000100: d6de 673e 24e5 56bd 23ec 2e3d 2389 a83c
00000110: 0833 5dbe 776a 233e 4838 c8bd c446 543e
00000120: 5ba3 353d a2d1 733e 0c2d 44be 4db7 063e
00000130: ac95 30ba 6e9d 5dbd 4c74 983d 5791 2bbe
00000140: ec36 033d 1f30 45bd 9040 b03e 3919 c6bd
00000150: 8628 e43e 17b0 e13d cef5 193d 0886 5bbd
00000160: 0a9e 893d c14d 03be 8d91 bebd f6cd 093e
00000170: 8e45 16be d902 273e 8f6f c03d 1f86 ebbd
00000180: c512 cb3d 71ec 8bbd d675 ee3d 3503 0cbd
00000190: afce 913e 2c9d 503d 411d 063f cb03 07bd
000001a0: 506d 25be 7b04 c7bd faec 0cbe f032 1f3d
000001b0: 01e9 57bc eac5 9b3e 291a 78bb 6ef1 18be
000001c0: d400 c33c e9b4 443c a948 383e 171a d93e
000001d0: 99bd 1dbe ca22 113d d61c c93d b338 bbbd
000001e0: bd94 abbd db58 c2bd 8e14 6bbe 6a11 73bd
000001f0: d751 b03e b48e 783d 6fbf 5cbe 2cc1 5b3e
00000200: 99bc 4dbe 6c37 12be 2239 2bbe e8b1 22be
00000210: 975a 0a3e adfb e43e 807c ddbd b89e cebd
00000220: 3aea 5c3e dd37 aa3c 4039 68bc be95 873e
00000230: 46c7 1bbe ffbe b63e ab70 42be c1cf 803e
00000240: 0885 c5bd 298c 1f3c 9972 8b3c d70f d83c
00000250: f9df 603e 5194 283e 3cc5 b23d 13d2 1abe
00000260: 17ca 0fbd 2a55 e2bd 1a3c 9e3d 16b5 22be
00000270: ac86 aabd f3b7 a33d 8847 1cbe 178a b43e
00000280: a620 0c3e 39dd 40bc 26c1 663d d0b0 333e
00000290: 67bb 083c 16d9 4cbd d807 b33e 4a12 b0bd
000002a0: ee80 383c 4870 963e 88ce 57bd ad1f 34be
000002b0: 4b5f 53bd d5f4 46be f048 08be b1fd 273d
000002c0: d117 463e a974 a83e 7643 a33d 96dc bcbd
000002d0: 47e1 5cbe 0f5d 573e f030 23be 5241 c6bc
000002e0: 76ab 973d 674e 49bd 729d a63e da07 b83e
000002f0: 1698 00be 32ae c9bc fb3e a53e a2d3 a5bd
00000300: 4396 35be 3175 bcbd 7a6c d4bd 3301 c7bd
00000310: 6ed2 1dbe c917 0e3e 6a87 fe3c 7c02 70bc
00000320: 70b3 49be 8bd9 da3c 16ea 08be 6795 d83c
00000330: 8736 50bb f39f 04be 98e9 0e3e 91e2 96bc
00000340: 60e4 853e 36a8 febd c2fb 7cbd 1c00 39be
00000350: f2d3 13bd f15d 43be 679f 05be 86af 5c3e
00000360: 311a 163e 59b4 633e 063d 873e abee 9b3d
00000370: 692c 2b3e a9f0 bcbd 38cc 13be 7128 09bd
00000380: 4d41 543e c0ed 403e 00bf f73d fb4c ae3e
00000390: 1163 703e e260 9dbd fc0b 39be 6350 7bbe
000003a0: 0f32 95be cfca 883e f6bb e63d 70fe f7bc
000003b0: 9592 773e e128 b53d d2e2 8f3d b9c5 31be
000003c0: c81f 79bd f4aa 76be 69b1 8a3d dc58 fe3d
000003d0: 358f bf3c e44c 1d3e 7b61 123e c4ee e2bb
000003e0: 62a5 a33e 3185 e33d d263 c13d c832 0fbd
000003f0: f6e5 423e 6aa0 943e 8c00 0ebe b23e 003e
0.15658332 -0.18650742 0.10355455 -0.13816923 -0.009348619 0.23829535 0.008565575 -0.04806001
-0.19619736 0.0014701271 0.14910181 -0.05004561 -0.12023387 -0.075961106 0.08766705 0.15127806
0.21273926 0.0411953 0.16405624 -0.10373717 0.2505607 0.13291684 -0.101028875 0.19789425
-0.0069184382 0.16076374 -0.2612872 0.03429251 0.38145733 0.11167351 -0.015396908 -0.13246824
0.32659793 0.14378758 -0.070435256 0.2511118 -0.12675242 0.32851785 0.005352204 -0.07204811
0.033060953 0.09065756 -0.15548794 -0.09951436 0.035756543 0.091844246 0.3779925 -0.17861699
-0.15952423 0.13753237 0.2623387 -0.011405056 -0.011680648 0.3168134 -0.12675786 0.0034283907
-0.0835124 0.07949325 -0.117302984 -0.18805718 -0.006693464 -0.043778356 0.13211732 -0.16421822
0.22643599 -0.05246462 0.042705666 0.020573204 -0.21601498 0.15958582 -0.0977636 0.2073012
0.04434524 0.23810437 -0.19157809 0.13155861 -0.000673617 -0.054105215 0.07444057 -0.16754662
0.0320348 -0.048141595 0.34424257 -0.096727796 0.44562167 0.110199146 0.037587933 -0.05359462
0.06719597 -0.1282263 -0.09305105 0.13457474 -0.1467497 0.1630968 0.09396278 -0.11500191
0.099156894 -0.06832207 0.11643569 -0.034182746 0.28478 0.05093114 0.5238839 -0.0329626
-0.1615498 -0.097176515 -0.13762274 0.038866937 -0.013178111 0.30424434 -0.003785739 -0.14935848
0.023804106 0.012006023 0.17996468 0.42402717 -0.15404357 0.035433568 0.09819953 -0.09141674
-0.08377979 -0.09489604 -0.2295706 -0.05934278 0.3443744 0.060682967 -0.21557401 0.21460408
-0.20091476 -0.14278954 -0.16721013 -0.15888178 0.1351112 0.44723263 -0.10814762 -0.10088867
0.21573725 0.02077859 -0.014173806 0.26481432 -0.15212736 0.35692593 -0.18988292 0.25158504
-0.09644514 0.009738007 0.017022418 0.02637474 0.21960439 0.16462828 0.08729026 -0.151192
-0.035104837 -0.110514 0.07726307 -0.15889391 -0.08326468 0.0799407 -0.15261662 0.35261604
0.1368433 -0.011771494 0.056336544 0.17547917 0.008345461 -0.050011717 0.34966922 -0.08597238
0.011261208 0.2938254 -0.052687198 -0.17590208 -0.05160455 -0.19429334 -0.13309073 0.041013423
0.19345023 0.32901505 0.079718515 -0.09221761 -0.21570311 0.21031593 -0.15936637 -0.024201069
0.074057505 -0.049147036 0.32541996 0.3594349 -0.12558016 -0.024619196 0.32274613 -0.080970064
-0.17733102 -0.0920204 -0.10372253 -0.097170256 -0.15412304 0.13876261 0.03107043 -0.01464903
-0.19697356 0.02671506 -0.13370547 0.026438428 -0.0031770782 -0.12951641 0.13956296 -0.018418582
0.261508 -0.124344274 -0.061763532 -0.18066448 -0.0360908 -0.19078805 -0.13049088 0.21551332
0.14658429 0.22236766 0.26413745 0.07613882 0.1671616 -0.0922559 -0.14433372 -0.033485834
0.20728035 0.18840694 0.12096977 0.34043106 0.23475291 -0.076844946 -0.18070978 -0.24542384
-0.29139754 0.2671723 0.112663195 -0.030272692 0.2417701 0.08845688 0.070256844 -0.17360581
-0.060821325 -0.24088651 0.067721196 0.12419292 0.023383716 0.15361363 0.14294998 -0.0069254357
0.31962115 0.111093886 0.09442867 -0.03496054 0.19033036 0.29028636 -0.13867396 0.12523916

conv_block1.0.bias f4 [10]
00000000: 1d42 873e cab7 1a3d 48bb 843e 1cce 803d
00000010: fc39 b23d 602c 1f3e 5428 b63d 27e6 2c3e
00000020: 565f 563e ac1e 2d3e
0.26417628 0.03777293 0.25924134 0.06289312 0.08702466 0.15544271 0.08894411 0.16884671
0.20934805 0.16906232

conv_block1.2.weight f4 [10, 10, 3, 3]
00000000: 2dba 1b3e d356 1c3d b446 72bc e1be eb3d
00000010: d317 103e c5df 08bc b121 9c3c 2ff9 813c
00000020: 7245 3fbc e0ff 22bc 372b 683d cc81 69be
00000030: bbc2 53be 7e76 0b3e b4ec 37bd 39fc 36be
00000040: d322 223e 6ec8 34be 1f73 c43d 03ff 1a3e
00000050: e379 1c3e 680c 99bc 6f2a 293e d293 2fbc
00000060: 9679 8d3c 9d6f debc 1f8a f1bc 6324 a9bd
00000070: 869c b0ba 46f0 2c3d 1147 02be 84ac dbbd
00000080: 9848 14bd aae6 33be d954 a7be 2760 56be
00000090: f34b c9bd 2e1d 63be 7e68 c6bd c380 4ebe
000000a0: e922 403c a224 b8bc dae1 9e3e 5dbc 26be
000000b0: 7cd7 483e 5471 683d 942c 0dbb 4a1a 633d
000000c0: 57f5 2a3c 4381 a03d d018 babd 50c2 36be
000000d0: 9fcf 6c3e 2aee e9bd fd94 49be 8486 1bbe
000000e0: 1d8f 8fbc 133e 20be 04cb 993c e97a 09be
000000f0: a3bf 493e 79fa 94bc c3e1 553e c293 5a3e
00000100: 7515 c63d 342e 973d 8a90 873d 96be b03d
00000110: f23a 423e fea1 24be e00a 42bc 121e 43bb
00000120: 339c b13c 5525 753d 8345 263e e041 073e
00000130: 9ee8 223e a918 c03c 48a8 03be 47d2 9fbd
00000140: c82b 06be 5617 613d bcc8 563d 8135 d13d
00000150: c730 debc 0283 003d 97cd 563d 1c98 f23d
00000160: 9308 46bd e22e e23c 22a6 933d 13d7 a8ba
00000170: 76c3 36bd 358f 123d e99a 2b3d a6fb cebd
00000180: 8104 c23d ad5b fabd 3b52 a93d 27e3 34be
00000190: b81b 983d 5765 923d aeaf ba3d d1c5 60be
000001a0: e27a 623e 09bd 94bd 7503 a1b9 efc9 f3bd
000001b0: 2ed6 3abc 7a4a ebbd 7ac5 a0bd de53 f43d
000001c0: 3029 073d 3cc9 36b9 cb4a 903c dd7d a53b
000001d0: 135b 2d3e fa8a 603b 2be6 153e b36b 303e
000001e0: 65f0 163e 233b dfbd 9906 9b3e da82 22be
000001f0: cd01 fdbd 286f 32bd e5de 9dbd 87c9 903d
00000200: d5e6 e2bc 27dd 5c3d e867 b1b9 f5bc 0b3d
00000210: 224c 2abe 6222 ab3d 9d2a 92bd 05af ef3d
00000220: 525d f8bd e1c1 333d 22bd 3e3d 1cf1 0c3c
00000230: 518d 91bc 6d28 123d 90a3 203c 1cfa 283d
00000240: 64ef 163e 2a51 bcbc 87bb d23d d2ba af3d
00000250: da32 f9bd eb57 e33c fc0b 0abe 8d72 11be
00000260: 3de0 1dbc c2f4 ddbd afc2 45be 0d58 c43d
00000270: b2fc 2f3e f606 2fbe 5546 773e 7c0f d83d
00000280: 7be3 003c 7747 3c3d 423d bd3d b276 103c
00000290: 86a2 183c 8a78 063e 4575 283e bd63 f83c
000002a0: 1fc4 8e3c d30d 103d 491e cd3d e4b4 503d
000002b0: 01cd 993d 3174 dbbd 805f 493e 0981 033e
000002c0: f2e5 d23c 77b4 8e3d f67a 06be fc79 eebd
000002d0: 91e3 293e ccb0 e73d 79f3 453d 60b4 eebd
000002e0: 4214 933c a329 93bb e33e 073d ea6f 833d
000002f0: 62e8 96bc 80c9 313d 4213 c0bc 650d 1bbe
00000300: 1647 2b3e eb6b 53be 516c 88bd 973d a43d
00000310: 5fb4 efbd d7a9 83bd b79b 0e3e e04a 69bd
00000320: 5089 8bbc 3efc 8b3d 12a7 68bd efcf 233d
00000330: b290 b73d 3e34 26bd cc9e 613d 9de5 4bbd
00000340: 5dcb ae3d 27e2 41be 7f3d 203e c62d 073e
00000350: 2e86 4abd 952f b33e b595 0fbe 1ca0 4b3c
00000360: a201 a33d 7217 aabd ab30 2ebe 7005 283e
00000370: f9d6 0a3e f443 9fbd dae7 473d 973f 10be
00000380: a77d dcbd 814e a23d 0e82 99bd 08d0 bc3d
00000390: 2719 8e3e d752 23be baf6 f6bc 2fff 97bd
000003a0: 3bab 803d 5018 943d a82c 873e 8719 863c
000003b0: a7dc 653d c94c 293e 452b 8b3d ea97 a03d
000003c0: 60ea fc3d 210a e33d 6384 aebd 6cef 1ebb
000003d0: 6d76 5abe a77b bfbd 6dba c63d c230 493d
000003e0: 64fa 643d 3a0a 46bc 96f2 ad3d 6c9a 813d
000003f0: e93f 0c3e 4fab 73bd a7b0 e13d 7387 193e
0.15207739 0.03816874 -0.014787365 0.11511017 0.14071588 -0.008354132 0.019059034 0.01586589
-0.011674272 -0.009948701 0.056681838 -0.2280342 -0.20679753 0.1361942 -0.044903472 -0.17869653
0.15833597 -0.17654583 0.0959227 0.15136342 0.15280871 -0.018682674 0.16520093 -0.010716395
0.01726989 -0.02715283 -0.029484807 -0.08258893 -0.0013474382 0.04222133 -0.12722422 -0.10726264
-0.036202043 -0.1756846 -0.3268192 -0.20935117 -0.09828939 -0.221791 -0.09687899 -0.20166306
0.011727073 -0.022478405 0.31031686 -0.16282792 0.19613451 0.056748703 -0.0021541463 0.055444993
0.01043447 0.07837155 -0.09086764 -0.17847562 0.23126076 -0.11422379 -0.19685741 -0.15188032
-0.017524296 -0.1564868 0.018773563 -0.13425793 0.1970201 -0.01818584 0.20886903 0.21345428
0.09672061 0.073818594 0.066193655 0.086301014 0.18967798 -0.1607742 -0.011843413 -0.0029772562
0.021680927 0.059850056 0.16237454 0.13208723 0.15909049 0.023449259 -0.12857163 -0.07803779
-0.13102639 0.054953896 0.05243753 0.10215283 -0.027122868 0.03137494 0.05244216 0.11845419
-0.04834802 0.027610246 0.07209422 -0.001288148 -0.04462 0.035781104 0.04189578 -0.10106592
0.09473515 -0.12224517 0.08267637 -0.17664777 0.07427162 0.07148235 0.091155395 -0.21950461
0.22117189 -0.07262618 -0.0003071089 -0.1190375 -0.0114036035 -0.11488815 -0.07850166 0.11930059
0.032998264 -0.00017431838 0.017613789 0.0050504045 0.16929273 0.0034262524 0.14638583 0.17228584
0.1474014 -0.10899951 0.3027847 -0.15870228 -0.12353859 -0.043563038 -0.077085294 0.07069688
-0.02769796 0.053921845 -0.00033837487 0.03411575 -0.16630605 0.083561674 -0.07137034 0.11703304
-0.121271744 0.04388607 0.04656709 0.008602407 -0.01776758 0.035683084 0.009804621 0.041254148
0.14739758 -0.02298792 0.10289674 0.08580555 -0.12167902 0.027751883 -0.13481134 -0.14203854
-0.009635982 -0.108376995 -0.19312547 0.09587107 0.1718624 -0.17092499 0.24147923 0.105498284
0.007866736 0.04596659 0.092401996 0.008817362 0.009316092 0.1313192 0.16450985 0.030320996
0.017427502 0.035169434 0.10015542 0.05095376 0.075098045 -0.10715521 0.19665337 0.12842192
0.025744412 0.06968015 -0.13132843 -0.116443604 0.16590716 0.11313018 0.048327897 -0.116554976
0.017953996 -0.0044910475 0.033018958 0.0641783 -0.018421356 0.043405056 -0.023446683 -0.15141828
0.16726336 -0.20646636 -0.06661285 0.0801956 -0.11704325 -0.06428879 0.13926588 -0.056956172
-0.01703325 0.06835221 -0.056799956 0.039993223 0.08963145 -0.040577166 0.05508308 -0.049779523
0.08534882 -0.18933927 0.15648459 0.13201055 -0.04944437 0.3499724 -0.14021952 0.01242831
0.07959296 -0.08305253 -0.17010753 0.16408324 0.13558568 -0.07776633 0.048805095 -0.14086758
-0.10766154 0.0792513 -0.07495509 0.09219366 0.27753565 -0.1594957 -0.030146945 -0.07421719
0.062826596 0.072312 0.26401258 0.016369594 0.056118634 0.16533197 0.067953624 0.07841475
0.12349391 0.11085916 -0.085213445 -0.0024251593 -0.21334238 -0.09349757 0.09703527 0.049118765
0.055902854 -0.012087399 0.08493535 0.06328282 0.13696255 -0.059489544 0.11020022 0.14993076

conv_block1.2.bias f4 [10]
00000000: a528 1d3e 7f58 b63c 1351 d03c 9455 ed3d
00000010: c4b3 a53d e432 a83d 5758 56bd 2b5c c03d
00000020: 8041 023e 1bc2 b1bd
0.15347536 0.022258995 0.025429284 0.11588588 0.08090928 0.082128316 -0.05233034 0.0939258
0.12720299 -0.08679601

conv_block2.0.weight f4 [10, 10, 3, 3]
00000000: 43a5 c6bc 234d 6fbd 33cf cf3d 913e 263d
00000010: 985f fc3d 6194 6abd bc65 e8bc 454c 8f3d
00000020: 62e3 153b 22ec 48bd a257 503d 0764 b83d
00000030: 7c58 f93d 4a9e aabc 8a12 ebbd 0ebc af3d
00000040: d99f 833d 2774 b4bd 421b 1dbe 0542 273e
00000050: 00fb ce3d c901 9f3d 6b74 b4bb ada2 cbbd
00000060: 7f1d b1bd def7 cf3d e068 d2bd 007a 8bbc
00000070: 7e92 18bd 9552 543e ddc3 483d 25e8 08bc
00000080: be51 59bd 352c 3ebc 2273 20be 9a57 8f3d
00000090: 1800 ff3c 1e69 133c 4af9 5dbd b5bd 62bc
000000a0: cee0 be3d d3c7 48bd bf88 683d b0a3 cc3d
000000b0: 89ab 01be 5fec e43d 6684 8dbd 3af6 363e
000000c0: 6758 bbbc 98ec d3bd 0add 0d3e 0a67 98bd
000000d0: 8376 42bd 831c 0dbd 5ea1 973d b2ac abbd
000000e0: d2fe 67bc e4e2 fb3c df02 a03d 5d3a 973d
000000f0: e77a 573d f11e ba3b 5b4d c0bd b035 f7bc
00000100: aa6e 923c 9e3b 233e 3577 bbbd 72b5 70bd
00000110: 67fc c6bd 28e8 2a3b d6a1 bf3d fda3 05be
00000120: bd93 20bc 5920 4bbd d15b 9139 86b9 afbd
00000130: 9cd7 f73d 0a38 eabc 5df9 a03d 9aa1 e33d
00000140: 3f42 0ebd 3aa3 643d 4b4e 163d c346 1e3d
00000150: 713d 07be c02b eb3d f69b dbbd a702 a13d
00000160: b411 203e 06c9 2c3c ee16 d03d 6399 783d
00000170: 941d 40bd b5f5 863c bb71 d7bc 2493 c03d
00000180: 6df0 27bc 5cd0 0a3e 91e3 803d ae3f 053d
00000190: 64d4 1bbe 6fb8 553e daf7 b33d 5100 a93d
000001a0: c194 27bd 107a 833c 977f d73d 8bd0 66bd
000001b0: 94fc d93d bf6b 16bd 92b6 053d 3ab8 9ebd
000001c0: 3f22 363e 697b acbd 974b 123d 3b07 d3bc
000001d0: 0603 2f3d 5fde f43d 1362 8abc b6bf 633d
000001e0: c33f a1bc a942 02bd be7e 393e e84e e33d
000001f0: eb3f babd 392f 0f3e 24de d03d 2fe6 acbd
00000200: 8afc 903b 840b d33d d584 ccbc d4e6 f33d
00000210: 52f9 853d 26e8 093e 2335 a33c 0428 273d
00000220: 2dc7 0b3e c420 d6bd 534f 783c f52d d33d
00000230: 7e35 563e 84ea 863b bf0b 0c3e 717a 1c3e
00000240: 10d7 4e3c 786f a9bd 68b0 763d cac3 3bbc
00000250: cdd1 0a3c ed32 f33d 72dd 233c 8236 773d
00000260: 95e2 083e 8b22 19bd 7336 113c 8a1f 053e
00000270: 9754 3c3d 40a6 9f3d 66be f2bc 0701 98bd
00000280: e83c c03d 4327 59bd 9087 713d fa4c a0bd
00000290: 0735 bbbd 9b8f 643d 48e4 e23d 9e97 95bc
000002a0: 0c50 8a3c 63e8 0d3e 3aa7 f43d e9e5 e2bd
000002b0: e49b 2abe 0c2b c83e 64dd 003e 53d5 05be
000002c0: 569c 263c d2b3 02be 5b1b cf3d 81f3 cbbd
000002d0: be32 dfbc e373 603d 2ea4 62bd fba2 05be
000002e0: 612d f7bd 83d0 a0bd 2a27 78bc ab2b bd3d
000002f0: 98e7 09bd eaeb 243c 406d e73d e138 2c3e
00000300: f1ad 30bc 4687 5b3d 95ef c6bd ca18 a03d
00000310: 849c 813d b44a 043e a082 7fbc f49a 01be
00000320: 6064 cb3d 09c1 a43d 6665 3c3e 0c3f c83d
00000330: fbc9 3a3d f67b b9bd d431 14bc ba2d 433d
00000340: 11ed 6ebe ec29 6abe f4e9 3f3d ab4c dd3d
00000350: 7e9f 2abe 0d14 aebc af59 17ba da74 873d
00000360: 8ee0 49bd e816 8cbd fe7f 08bc f223 38bd
00000370: ec97 b3bc b319 47bb c6f8 cfbd 0440 ff3c
00000380: 926c e9bd b11d c6bd 6fb1 523e 4ad6 a33d
00000390: 7671 b83d 21c3 ec3c 3208 923d 8f69 db3d
000003a0: df7b a43d 08f7 32bd 9edf 8f3d aa5d 6c3c
000003b0: d52e c33c e64a b9bd 15fb cf3c a137 623e
000003c0: 885d a43d d720 053e dc43 5cbd e075 01be
000003d0: fb84 c8bd 6a6a 7dbc a85d 78bd df02 3b3d
000003e0: 7f30 383e 2d3d 9cbd c6b5 6cbd 437b e6bd
000003f0: 8fa1 c8bb 780f c9bc a813 1c3d b4fd d73d
-0.024248725 -0.058423173 0.10146942 0.04058701 0.123229206 -0.05727041 -0.028368823 0.06996969
0.0022871126 -0.04905332 0.050864823 0.09003454 0.1217508 -0.020827431 -0.114781454 0.085807905
0.06426973 -0.08811217 -0.1534243 0.16333778 0.10106468 0.07764012 -0.005507042 -0.09943137
-0.08648204 0.10154699 -0.102739096 -0.017025948 -0.03724908 0.20734628 0.049014915 -0.008356129
-0.05305647 -0.011607219 -0.1566892 0.069991305 0.031127974 0.00899723 -0.05419282 -0.013839175
0.09320222 -0.049018692 0.056771036 0.099921584 -0.12663092 0.11177897 -0.069100186 0.17867365
-0.022869302 -0.10347861 0.13853851 -0.07441528 -0.047476303 -0.03445102 0.07403825 -0.083825484
-0.014159875 0.030747838 0.078130476 0.07384179 0.052607443 0.005679958 -0.093897544 -0.030176967
0.017875034 0.15940711 -0.09153596 -0.05876679 -0.09716111 0.0026078317 0.0935704 -0.13050838
-0.009800849 -0.049591396 0.00027724964 -0.08580308 0.12101671 -0.028591175 0.07860062 0.111148074
-0.034731146 0.055819727 0.03669576 0.038641702 -0.13207032 0.11482954 -0.107231066 0.07861834
0.15631753 0.010545975 0.101606235 0.060693156 -0.046903208 0.016474584 -0.026299348 0.09403065
-0.010250193 0.13556045 0.06293405 0.032531433 -0.1521774 0.20871137 0.08787508 0.082520135
-0.040913347 0.016049415 0.10522383 -0.056351226 0.106438786 -0.03672385 0.032644816 -0.07749982
0.17786501 -0.08421976 0.03571662 -0.025760284 0.042727493 0.119564764 -0.016892469 0.05560275
-0.019683724 -0.031801853 0.18114755 0.110990345 -0.09094223 0.13982858 0.1019862 -0.084423415
0.0044246363 0.10304931 -0.024965683 0.11909261 0.06541695 0.13467464 0.019922798 0.040809646
0.13650198 -0.10455468 0.015155631 0.103115 0.20918843 0.004117312 0.13676356 0.15281083
0.012624517 -0.08273214 0.060226828 -0.011460254 0.008472872 0.11874948 0.010001527 0.060354717
0.13367684 -0.03738646 0.008863079 0.13000312 0.04597911 0.077953815 -0.029631805 -0.07422071
0.09386617 -0.05301596 0.058967173 -0.07827182 -0.091409735 0.055801015 0.110786974 -0.018260773
0.016883872 0.1385818 0.119459584 -0.11079008 -0.1666103 0.39095342 0.12584454 -0.13069658
0.010169109 -0.12763909 0.101126395 -0.09958554 -0.027245875 0.05479802 -0.055332355 -0.13050453
-0.12069202 -0.078522705 -0.015146056 0.09236845 -0.03366813 0.010066012 0.11300135 0.16818573
-0.010783658 0.053595804 -0.097136654 0.07817228 0.06328681 0.12919122 -0.015595108 -0.12656766
0.099312544 0.08044631 0.18398055 0.0977765 0.04560278 -0.09056847 -0.009045083 0.04765103
-0.23332621 -0.22867554 0.046853974 0.10805639 -0.16662404 -0.021249795 -0.0005773557 0.066140845
-0.049286418 -0.068403065 -0.008331297 -0.044956155 -0.021923028 -0.0030380308 -0.10154872 0.031158455
-0.11397661 -0.09673632 0.20575498 0.07999857 0.09006016 0.028901638 0.071304694 0.10713493
0.08031439 -0.04369262 0.070250735 0.014426628 0.023826042 -0.09047489 0.02538828 0.22091533
0.08025652 0.13000809 -0.053775653 -0.12642622 -0.09790989 -0.015467266 -0.060636193 0.045657035
0.1798725 -0.07628856 -0.05779054 -0.11253979 -0.006122775 -0.024543509 0.038104683 0.10546437

conv_block2.0.bias f4 [10]
00000000: 1e7d 163c 9582 eabb 8940 a0bd f919 da3c
00000010: 4ef1 fa3d 1a4a 14bd 6547 efbc b55e b03d
00000020: 8586 8abd 7fe9 53bd
0.009185104 -0.00715668 -0.07824809 0.026623713 0.122530565 -0.03620348 -0.029208848 0.08611814
-0.06763939 -0.05173635

conv_block2.2.weight f4 [10, 10, 3, 3]
00000000: 1f64 913d 4340 8a3d 045c e73c 507e cb3c
00000010: f6bc fe3d 4722 6cbe 13ec 833d 2053 dcbb
00000020: 245f 84bd 0ee3 d23c 8124 f73d 4f73 423b
00000030: 1160 4dbd 690c 68bd f9e9 7b3d f4b6 be3c
00000040: dfcb ab3b 06d0 ed3c 12db 1bbd aa2d 273e
00000050: 9fcd c33d 8190 59bd 2e0f efbd 7866 80bb
00000060: 9e89 f5bd 3fa9 613d bae6 3f3d ce65 dabd
00000070: d5c1 873d 7c98 aa3d 7eac c7bd 0c58 3c3e
00000080: 12cb ba3d c262 31bd 7cc4 d93c fe59 88bd
00000090: f88c 08be 3c08 c43d 95bc 123d b78b 26be
000000a0: c496 db3d 9b23 dd3d abe9 0bbd 857c 38bd
000000b0: 1599 a4bd 64a8 94bd d961 fabc 9319 733c
000000c0: 22b0 8abd 257f febd 4a46 82bd eae4 413d
000000d0: bf60 7b3d cf94 ccbd 6012 b2bd f381 e83d
000000e0: 135f c9bd 610b e3bd b30e 4dbc 78ad a53d
000000f0: 16f6 a5bd b3d8 d53d 5ca8 84bc 4cb7 f93c
00000100: 67f7 0b3e 97dc 703d 230c 6cbd c47d 85be
00000110: 0a56 723d aa7f 89bd 2ebb dfbd 1526 54bd
00000120: 0676 803d ee55 d23a 14c7 e5bc a0f3 36bd
00000130: 2268 773b dab5 113e 326e 1abd f164 cabc
00000140: bafb 6b3d 44c8 c93c c813 063e ec06 ed3c
00000150: b1c4 d63c d9b1 0abe 7741 15be 5e29 0d3c
00000160: d494 eabd c829 13bd 4620 7f3d 27b1 89bd
00000170: 948b a63c b919 1abc 9028 823d 6e83 0b3d
00000180: e7d5 31bd 665d 613d 80bc f03b 1d3b fcbd
00000190: ab0c 42bd f61d f9bc fb56 00be 2813 95bd
000001a0: 8d44 483c 4875 83bc c8a7 5a3c ef4b d3bd
000001b0: c75d 9fbd 1ac3 85bd db74 cb3d 6df7 8abd
000001c0: 50c7 8f3b 20d1 96bd 4abf 4e3d 1f92 38bd
000001d0: ec4f 59bd 3ecb 343d 6da0 cabc cb9f 84bd
000001e0: b89e 733c 477d e7bc ea7d e03b 7652 083d
000001f0: 627c b53c 4da5 8e3b 3536 773d 86e1 c93b
00000200: 1e8d d5bd 12da ddbc 3584 a1bb afa3 74bd
00000210: a00a a8bd 3d5e 7fbc 57db afbd 16f9 533d
00000220: be4f 453d 976b 933d 5aaa 0d3d bc80 02bd
00000230: 843a b0b9 495c a23d c76b e9bd 17f5 8cbd
00000240: 444c f8bc 44e1 2abd 70ba 84bd 69ca ba3d
00000250: 50de a63d 0259 a2bd 58e8 ab3d 24d4 f53c
00000260: e716 c83d 7d8d 4a3d 1e36 af3d ebd6 833d
00000270: a516 873d 4454 eabd 6f43 a9bc d185 12bc
00000280: 7458 39bd cf31 cd3c 11e4 e3bd 7066 533d
00000290: 92b9 55bd ed8a b3bd 7ec2 1bbd dd49 bfbc
000002a0: a33d a5bc dace eabd aa39 cb3c e110 94bd
000002b0: 682b 063c c6ae 41bd 023c 373d 0ce0 8b3c
000002c0: 1e43 0a3d 7926 a53d 509d c1bb 7495 d6bc
000002d0: 504a dbbc e092 723c 60a2 2f3b 7cfe 84bc
000002e0: d262 113e b24c e33d ce26 00bd ebc5 993c
000002f0: bb1e 6f3c 1750 b4bd 3ea8 3fbd d26b 1f3d
00000300: c9ad a0bd 625b 463d 1fb3 ec3d fe1a 793d
00000310: 3dcc b6bd b51e 3b3e 8019 d43a 3626 b4bd
00000320: da76 1e3d b3d1 8f3d c9dc 6cbd 9675 55bd
00000330: 6037 a9bd f8f1 c2bd 6b73 463d d40c c33c
00000340: 405b b3bd 39d0 a43d 7d50 c5bd c1a1 13be
00000350: 364c b13d 97d0 52bd 5bdc bbbd a3ee 26bd
00000360: e84d 3c3c dc67 41bd 4b7c ad3d 1f84 f5bb
00000370: 1197 8f3c 2cea 1f3e f1b5 883d e49a b23d
00000380: e624 bb3d 30e9 c4bc 8440 c7bc 77fe c93d
00000390: 4eff 1fbd 7cce d5bd b545 b6bd 6fa4 b7bd
000003a0: 4305 f93d e38d 123e 3df5 983d d48d 10bd
000003b0: fabf 19bd 93aa 38bd 3eac bbbd 6d18 73bd
000003c0: 56cd 5e3d 005f 253d f61e 91bd 6b89 d73d
000003d0: 81a2 823d c863 2abc 1b4c bb3d 30ab 84bd
000003e0: 24fb 2f3d c54c 9bbc 4caa 423e 3f20 4ebd
000003f0: 38a4 843c 560d 4abd da0a 20bd 5267 cabd
0.07099175 0.06750538 0.028242119 0.024840504 0.12438385 -0.23059951 0.06441512 -0.0067237765
-0.06463459 0.025743034 0.120675094 0.002967078 -0.050140444 -0.05665246 0.06150243 0.023280598
0.005242809 0.029029857 -0.03805072 0.16326013 0.095607035 -0.053116325 -0.11672817 -0.003918465
-0.11989139 0.055093046 0.046850897 -0.10663949 0.066287674 0.08329865 -0.09749697 0.18392962
0.09120764 -0.043307073 0.026582949 -0.0665779 -0.13335025 0.09571883 0.035824377 -0.16264234
0.10722116 0.10797807 -0.03415839 -0.045040626 -0.080370106 -0.072586805 -0.030564236 0.01483764
-0.06771876 -0.12426595 -0.06361063 0.04733745 0.06137156 -0.099893205 -0.08694911 0.11352911
-0.09832587 -0.11086155 -0.012515712 0.08089727 -0.08103578 0.10441723 -0.016193561 0.03048291
0.13668595 0.05880412 -0.057628762 -0.26072514 0.059164084 -0.06713803 -0.109243736 -0.05179413
0.06272511 0.0016047338 -0.02804903 -0.044665933 0.0037751277 0.14229527 -0.037702747 -0.024706336
0.057613112 0.024631627 0.13093483 0.028933965 0.026216837 -0.13544406 -0.14575754 0.00861582
-0.11454168 -0.035928518 0.062286638 -0.06723242 0.020330228 -0.009405547 0.06355393 0.034060888
-0.043416884 0.055020712 0.0073466897 -0.123159625 -0.047375362 -0.030409794 -0.1253318 -0.072790444
0.012223375 -0.016047135 0.013345666 -0.103172176 -0.077815585 -0.06531353 0.09934398 -0.06785474
0.0043877736 -0.07364106 0.050475396 -0.045061227 -0.053054735 0.04413914 -0.0247347 -0.064757906
0.0148693845 -0.02825798 0.0068509476 0.033281766 0.022154037 0.0043532015 0.06035443 0.0061609177
-0.104273066 -0.027081523 -0.0049290904 -0.059726413 -0.082051516 -0.015586433 -0.08586758 0.05175122
0.04817175 0.071982555 0.034586288 -0.031861052 -0.00033612933 0.07927758 -0.1139751 -0.06882685
-0.030309804 -0.041718736 -0.06480873 0.09120638 0.081478715 -0.07927133 0.083939254 0.030008383
0.09769993 0.04945134 0.08555244 0.06437477 0.06596116 -0.11441854 -0.020662038 -0.008943037
-0.04525037 0.025048165 -0.111274846 0.051611364 -0.052178927 -0.08766732 -0.03802728 -0.02335065
-0.020170992 -0.11465235 0.02480777 -0.07229782 0.00818906 -0.047285818 0.044734962 0.017074607
0.033755414 0.08063979 -0.0059086457 -0.026194312 -0.026768833 0.014805526 0.0026799664 -0.016234629
0.14197853 0.11098613 -0.031287007 0.018771132 0.014594729 -0.088043384 -0.046791308 0.038921185
-0.07845647 0.048426993 0.11557602 0.060816757 -0.08925674 0.18273433 0.0016181916 -0.08796351
0.038687564 0.07022419 -0.057827745 -0.05211409 -0.08262515 -0.09518808 0.048449915 0.023809828
-0.08757639 0.08047528 -0.096344925 -0.14417173 0.08657114 -0.051468458 -0.09172889 -0.040754925
0.011493184 -0.04721819 0.084709726 -0.0074925567 0.017528089 0.15616673 0.066753276 0.08720949
0.09137897 -0.024036974 -0.024322756 0.098629884 -0.039061837 -0.104397744 -0.08900014 -0.0896691
0.12159207 0.14311938 0.074686505 -0.035291508 -0.0375366 -0.045084547 -0.09163712 -0.059349466
0.054395042 0.040373802 -0.070859835 0.10524257 0.063786514 -0.010399766 0.09145375 -0.06477964
0.042964116 -0.018957505 0.19010276 -0.05032372 0.016191587 -0.049329124 -0.03907285 -0.09882988

conv_block2.2.bias f4 [10]
00000000: d3d7 7ebd 46db 4b3d 679e e63c d6b7 4b3d
00000010: a616 95bd 912f 043d d29b a53d e8ca aa3b
00000020: f49c c93d 171e c9bd
-0.062217545 0.049769662 0.028151704 0.049735866 -0.072797105 0.032271925 0.08086361 0.0052121766
0.098443896 -0.09820192

layer_stack.1.weight f4 [4, 10]
00000000: a3d9 a23e 7a0f 82be 1640 a13e 1803 0abe
00000010: 8b6c 2a3e c8f4 853e 422a afbd d522 7abe
00000020: 478d 343e 9a7a a93d f430 913e 8e55 1dbe
00000030: cbde 273d 78d5 d23d 9c0c b13e a218 383d
00000040: 9a6a 9e3e 0add c93e 835c aabe 05eb c3bd
00000050: 934c 84be 4a2f e03c a859 803e c979 84be
00000060: a243 abbe f5b3 593e e574 9fbe e32d b93c
00000070: 1c29 e7bb 22c2 90be f447 86bd 6895 79bc
00000080: cad6 30bd e914 913e f836 513e 7824 e23b
00000090: 546d 5d3e 49b1 8e3e b9bd 893e d0c2 f2bd
0.3180667 -0.25402433 0.31494206 -0.13477743 0.16642968 0.26163316 -0.08552982 -0.2442735
0.17632018 0.082753375 0.2835766 -0.15364668 0.040983956 0.10294622 0.34579933 0.044945367
0.30940706 0.39426452 -0.33273706 -0.09566311 -0.25839671 0.0273663 0.25068402 -0.25874165
-0.33450037 0.21260054 -0.3114387 0.022604888 -0.007054461 -0.28273112 -0.06556693 -0.015233375
-0.04317359 0.28336266 0.20431125 0.00690132 0.21623737 0.27869633 0.2690256 -0.11853564

layer_stack.1.bias f4 [4]
00000000: 1ab5 61be 83c1 e1bc 3b37 413e 79e4 f83b
-0.22041741 -0.027558094 0.18868725 0.0075955954
