mountaincar_dql_20000.pt (torch, 2368 bytes, 4 tensors)

fc1.weight f4 [10, 2]
000000 44 63 56 3e 28 e2 54 be aa be ca be c6 66 28 bf
       0.20936304 -0.20789397 -0.3959859 -0.6578182
000010 e1 cc 66 3e 0e 8d 54 3f b6 de 20 bf 86 e2 fd be
       0.22539093 0.8302773 -0.6283983 -0.49586886
000020 4c b1 bb be 2a 67 d4 be 1e 6c 1c bf a8 ae 1f bf
       -0.36658704 -0.41484958 -0.61102474 -0.6237588
000030 1d 6a dc be 2c 15 06 bf 4d 12 b3 bd 8d 4a c1 3c
       -0.43049708 -0.52376056 -0.08743725 0.023595119
000040 c0 5b 0b 3d c3 3e ab be 19 a6 08 3e 5a 44 06 3f
       0.034023046 -0.3344632 0.13344611 0.52448046

fc1.bias f4 [10]
000000 ee d3 f3 bf 22 51 ef 3e a1 b0 74 40 30 1d 5c 3d
       -1.9049051 0.46741587 3.8232806 0.053738773
000010 8c 3f 2b bf 50 c9 51 be 89 88 c1 3e e6 6a fb 3f
       -0.6689384 -0.20486951 0.3779948 1.9641998
000020 42 5a e1 be f0 27 5c c0
       -0.44014174 -3.4399376

out.weight f4 [3, 10]
000000 84 53 6d 3e 18 0a 76 bd fc d3 45 bf 84 eb 8e bd
       0.2317639 -0.06006822 -0.7727659 -0.06978515
000010 2e 6b 79 3e 28 2e 17 3e f9 e8 c2 3e 47 f5 6f be
       0.24357292 0.14763701 0.3806837 -0.2343341
000020 d2 6b 54 be d7 27 aa 3f e4 21 03 3e cd 8f 90 3e
       -0.20744255 1.3293408 0.12805897 0.2823471
000030 75 cf 48 bf 40 01 d0 3c fe 1e 66 3e 09 6f 80 3e
       -0.78441554 0.025391221 0.2247276 0.25084713
000040 e9 d3 1e be e4 c0 34 be f0 6f 24 bd 7e f0 ac 3f
       -0.15510525 -0.17651707 -0.040145814 1.3510892
000050 4c 73 ae 3e 00 3f c2 3d 35 f3 49 bf 8c 87 20 be
       0.3407234 0.094846725 -0.7888673 -0.15676707
000060 f4 8b 87 3d c2 da 51 3e 9a c1 be 3e 73 26 4f be
       0.06618491 0.20493606 0.3725708 -0.20229511
000070 e0 04 d2 3c cd f5 a9 3f
       0.02563709 1.3278137

out.bias f4 [3]
000000 ae 96 2a c0 2f ff 28 c0 e0 69 1e c0
       -2.6654468 -2.6405752 -2.475212
