mountaincar_dql_15137.pt (torch, 2368 bytes, 4 tensors)

fc1.weight f4 [10, 2]
00000000: 8379 563e aed2 54be aabe cabe c666 28bf
00000010: 67d5 873e 7bfc 5f3f b6de 20bf 86e2 fdbe
00000020: 4cb1 bbbe 2a67 d4be 1e6c 1cbf a8ae 1fbf
00000030: 1d6a dcbe 2c15 06bf e1c9 5abd 2745 763d
00000040: c05b 0b3d c33e abbe 8a99 243e ae26 053f
0.2094479 -0.20783493 -0.3959859 -0.6578182 0.2653 0.8749463 -0.6283983 -0.49586886
-0.36658704 -0.41484958 -0.61102474 -0.6237588 -0.43049708 -0.52376056 -0.053415183 0.060124543
0.034023046 -0.3344632 0.16074196 0.52012146

fc1.bias f4 [10]
00000000: d9d1 f3bf 2251 ef3e 0b5d 6a40 301d 5c3d
00000010: 8c3f 2bbf 50c9 51be 8988 c13e 96bd ef3f
00000020: 425a e1be 6609 57c0
-1.9048415 0.46741587 3.661929 0.053738773 -0.6689384 -0.20486951 0.3779948 1.8729732
-0.44014174 -3.3599486

out.weight f4 [3, 10]
00000000: 9953 6d3e 180a 76bd cf9e 40bf 84eb 8ebd
00000010: 2e6b 793e 282e 173e f9e8 c23e d33d 93be
00000020: d26b 54be bf85 af3f 1b22 033e cd8f 903e
00000030: af84 44bf 4001 d03c fe1e 663e 096f 803e
00000040: e9d3 1ebe a095 84be f06f 24bd 72e8 b23f
00000050: 4c73 ae3e 003f c23d faca 41bf 8c87 20be
00000060: f48b 873d c2da 513e 9ac1 be3e bb2c b7be
00000070: e004 d23c 2033 b53f
0.23176421 -0.06006822 -0.7524232 -0.06978515 0.24357292 0.14763701 0.3806837 -0.28758106
-0.20744255 1.3712691 0.12805979 0.2823471 -0.7676496 0.025391221 0.2247276 0.25084713
-0.15510525 -0.25895405 -0.040145814 1.3977187 0.3407234 0.094846725 -0.7570034 -0.15676707
0.06618491 0.20493606 0.3725708 -0.35776314 0.02563709 1.4156227

out.bias f4 [3]
00000000: 5352 1cc0 e9eb 18c0 47e8 15c0
-2.4425247 -2.3893988 -2.342302
