mountaincar_dql_11806.pt (torch, 2368 bytes, 4 tensors)

fc1.weight f4 [10, 2]
0.23791789 -0.18604815 -0.3959859 -0.6578182 0.31199902 0.90296924 -0.6283983 -0.49586886
-0.36658704 -0.41484958 -0.61102474 -0.6237588 -0.43049708 -0.52376056 0.07097633 0.13261724
0.034023046 -0.3344632 0.18234766 0.5163193
00000000: bfa0 733e 6883 3ebe aabe cabe c666 28bf
00000010: 56be 9f3e fe28 673f b6de 20bf 86e2 fdbe
00000020: 4cb1 bbbe 2a67 d4be 1e6c 1cbf a8ae 1fbf
00000030: 1d6a dcbe 2c15 06bf 0a5c 913d d0cc 073e
00000040: c05b 0b3d c33e abbe 58b9 3a3e 802d 043f

fc1.bias f4 [10]
-1.8831762 0.46741587 3.5496106 0.053738773 -0.6689384 -0.20486951 0.3779948 1.8231071
-0.44014174 -3.3298063
00000000: eb0b f1bf 2251 ef3e d22c 6340 301d 5c3d
00000010: 8c3f 2bbf 50c9 51be 8988 c13e 935b e93f
00000020: 425a e1be 8c1b 55c0

out.weight f4 [3, 10]
0.2312765 -0.06006822 -0.7354177 -0.06978515 0.24357292 0.14763701 0.3806837 -0.32785586
-0.20744255 1.4503406 0.12450413 0.2823471 -0.74855375 0.025391221 0.2247276 0.25084713
-0.15510525 -0.30925593 -0.040145814 1.4699694 0.34601277 0.094846725 -0.7321279 -0.15676707
0.06618491 0.20493606 0.3725708 -0.37448388 0.02563709 1.4627141
00000000: bfd3 6c3e 180a 76bd 5644 3cbf 84eb 8ebd
00000010: 2e6b 793e 282e 173e f9e8 c23e b9dc a7be
00000020: d26b 54be c3a4 b93f 05fc fe3d cd8f 903e
00000030: 38a1 3fbf 4001 d03c fe1e 663e 096f 803e
00000040: e9d3 1ebe cb56 9ebe f06f 24bd f527 bc3f
00000050: 9628 b13e 003f c23d bc6c 3bbf 8c87 20be
00000060: f48b 873d c2da 513e 9ac1 be3e 5abc bfbe
00000070: e004 d23c 373a bb3f

out.bias f4 [3]
-2.2956977 -2.2385178 -2.2142107
00000000: b6ec 12c0 e043 0fc0 a1b5 0dc0
