mountaincar_dql_7596.pt (torch, 2360 bytes, 4 tensors)

fc1.weight f4 [10, 2]
0.19664292 0.02504339 -0.3959859 -0.6578182 0.35195574 0.90155494 -0.6283983 -0.49586886
-0.36658704 -0.41484958 -0.61102474 -0.6237588 -0.43049708 -0.52376056 0.19596818 0.1701425
0.034023046 -0.3344632 0.21090028 0.46328008
00000000: c35c 493e cc27 cd3c aabe cabe c666 28bf
00000010: 8b33 b43e 4ecc 663f b6de 20bf 86e2 fdbe
00000020: 4cb1 bbbe 2a67 d4be 1e6c 1cbf a8ae 1fbf
00000030: 1d6a dcbe 2c15 06bf e2ab 483e d639 2e3e
00000040: c05b 0b3d c33e abbe 3ef6 573e 0c33 ed3e

fc1.bias f4 [10]
-1.4630692 0.46741587 3.3320158 0.053738773 -0.6689384 -0.20486951 0.3779948 1.657466
-0.44014174 -3.3718092
00000000: da45 bbbf 2251 ef3e bf3f 5540 301d 5c3d
00000010: 8c3f 2bbf 50c9 51be 8988 c13e d927 d43f
00000020: 425a e1be b9cb 57c0

out.weight f4 [3, 10]
0.12858513 -0.06006822 -0.6782304 -0.06978515 0.24357292 0.14763701 0.3806837 -0.31593296
-0.20744255 1.5053914 0.06808864 0.2823471 -0.71017146 0.025391221 0.2247276 0.25084713
-0.15510525 -0.2611654 -0.040145814 1.5564024 0.18354513 0.094846725 -0.6696698 -0.15676707
0.06618491 0.20493606 0.3725708 -0.39217108 0.02563709 1.5358856
00000000: d2ab 033e 180a 76bd 82a0 2dbf 84eb 8ebd
00000010: 2e6b 793e 282e 173e f9e8 c23e f7c1 a1be
00000020: d26b 54be aab0 c03f 0f72 8b3d cd8f 903e
00000030: cccd 35bf 4001 d03c fe1e 663e 096f 803e
00000040: e9d3 1ebe 79b7 85be f06f 24bd 3238 c73f
00000050: 41f3 3b3e 003f c23d 7b6f 2bbf 8c87 20be
00000060: f48b 873d c2da 513e 9ac1 be3e a6ca c8be
00000070: e004 d23c e697 c43f

out.bias f4 [3]
-2.0884643 -2.0090156 -1.9597182
00000000: 66a9 05c0 b693 00c0 0cd8 fabf
