mountaincar_dql_12613.pt (torch, 2368 bytes, 4 tensors)

fc1.weight f4 [10, 2]
0.2151708 -0.20178677 -0.3959859 -0.6578182 0.2871564 0.89528304 -0.6283983 -0.49586886
-0.36658704 -0.41484958 -0.61102474 -0.6237588 -0.43049708 -0.52376056 0.014157712 0.10453916
0.034023046 -0.3344632 0.17722933 0.5005208
00000000: bc55 5c3e 31a1 4ebe aabe cabe c666 28bf
00000010: 2a06 933e 4531 653f b6de 20bf 86e2 fdbe
00000020: 4cb1 bbbe 2a67 d4be 1e6c 1cbf a8ae 1fbf
00000030: 1d6a dcbe 2c15 06bf c0f5 673c a118 d63d
00000040: c05b 0b3d c33e abbe 9b7b 353e 2222 003f

fc1.bias f4 [10]
-1.9027871 0.46741587 3.5873132 0.053738773 -0.6689384 -0.20486951 0.3779948 1.8357275
-0.44014174 -3.3710585
00000000: 878e f3bf 2251 ef3e 8a96 6540 301d 5c3d
00000010: 8c3f 2bbf 50c9 51be 8988 c13e 1ef9 ea3f
00000020: 425a e1be 6cbf 57c0

out.weight f4 [3, 10]
0.23242155 -0.06006822 -0.74209994 -0.06978515 0.24357292 0.14763701 0.3806837 -0.31401742
-0.20744255 1.4171329 0.12793544 0.2823471 -0.75907314 0.025391221 0.2247276 0.25084713
-0.15510525 -0.30484673 -0.040145814 1.4439815 0.34054646 0.094846725 -0.743669 -0.15676707
0.06618491 0.20493606 0.3725708 -0.36619943 0.02563709 1.4587356
00000000: eaff 6d3e 180a 76bd 43fa 3dbf 84eb 8ebd
00000010: 2e6b 793e 282e 173e f9e8 c23e e4c6 a0be
00000020: d26b 54be 9c64 b53f 8201 033e cd8f 903e
00000030: 9e52 42bf 4001 d03c fe1e 663e 096f 803e
00000040: e9d3 1ebe df14 9cbe f06f 24bd 63d4 b83f
00000050: 1b5c ae3e 003f c23d 1761 3ebf 8c87 20be
00000060: f48b 873d c2da 513e 9ac1 be3e 7e7e bbbe
00000070: e004 d23c d9b7 ba3f

out.bias f4 [3]
-2.3328822 -2.2932653 -2.2758753
00000000: f14d 15c0 dcc4 12c0 f1a7 11c0
