mountaincar_dql_11807.pt (torch, 2368 bytes, 4 tensors)

fc1.weight f4 [10, 2]
000000 82 ae 73 3e f2 78 3e be aa be ca be c6 66 28 bf
       0.23797038 -0.18600824 -0.3959859 -0.6578182
000010 15 be 9f 3e 35 28 67 3f b6 de 20 bf 86 e2 fd be
       0.3119971 0.90295726 -0.6283983 -0.49586886
000020 4c b1 bb be 2a 67 d4 be 1e 6c 1c bf a8 ae 1f bf
       -0.36658704 -0.41484958 -0.61102474 -0.6237588
000030 1d 6a dc be 2c 15 06 bf fd 59 91 3d f4 c9 07 3e
       -0.43049708 -0.52376056 0.07097242 0.13260633
000040 c0 5b 0b 3d c3 3e ab be 15 b3 3a 3e 55 2e 04 3f
       0.034023046 -0.3344632 0.18232377 0.516332

fc1.bias f4 [10]
000000 6e 0a f1 bf 22 51 ef 3e 51 2c 63 40 30 1d 5c 3d
       -1.8831308 0.46741587 3.5495799 0.053738773
000010 8c 3f 2b bf 50 c9 51 be 89 88 c1 3e 7b 5a e9 3f
       -0.6689384 -0.20486951 0.3779948 1.8230737
000020 42 5a e1 be 2e 1b 55 c0
       -0.44014174 -3.329784

out.weight f4 [3, 10]
000000 81 d6 6c 3e 18 0a 76 bd bc 43 3c bf 84 eb 8e bd
       0.23128702 -0.06006822 -0.73540854 -0.06978515
000010 2e 6b 79 3e 28 2e 17 3e f9 e8 c2 3e 82 db a7 be
       0.24357292 0.14763701 0.3806837 -0.3278466
000020 d2 6b 54 be 24 a5 b9 3f d9 01 ff 3d cd 8f 90 3e
       -0.20744255 1.4503522 0.12451524 0.2823471
000030 67 a0 3f bf 40 01 d0 3c fe 1e 66 3e 09 6f 80 3e
       -0.7485413 0.025391221 0.2247276 0.25084713
000040 e9 d3 1e be f9 55 9e be f0 6f 24 bd 95 28 bc 3f
       -0.15510525 -0.30924967 -0.040145814 1.4699885
000050 c6 27 b1 3e 00 3f c2 3d d7 6b 3b bf 8c 87 20 be
       0.34600657 0.094846725 -0.73211426 -0.15676707
000060 f4 8b 87 3d c2 da 51 3e 9a c1 be 3e cb b8 bf be
       0.06618491 0.20493606 0.3725708 -0.37445673
000070 e0 04 d2 3c 5d 38 bb 3f
       0.02563709 1.4626576

out.bias f4 [3]
000000 9c ec 12 c0 c9 43 0f c0 9d b4 0d c0
       -2.2956915 -2.2385123 -2.2141488
